pretrained/MNIST - standardization/LeNet5_ReLU_MaxPool_9914.pt (torch, 250131 bytes, 10 tensors)

C1.weight f4 [6, 1, 5, 5]
0	0x3dddfa8a	0.10838802
1	0x3e4e5a64	0.20151669
2	0x3dc20b1b	0.094747745
3	0xbcde249e	-0.02711707
4	0xbd3c612f	-0.04599112
5	0xbcf3fbe3	-0.029783195
6	0x3e56f152	0.20990494
7	0x3e6a3ae3	0.22874026
8	0xbe1abfac	-0.1511218
9	0xbdcbdfc8	-0.09954792
10	0x3eabe74a	0.33574897
11	0x3e0474e1	0.12935211
12	0x3e4725b8	0.19447982
13	0xbea510df	-0.32239434
14	0xbed20f74	-0.41027415
15	0x3e6d2c76	0.23161492
16	0x3e1293a3	0.14314131
17	0xbc0241d2	-0.007950263
18	0xbea70547	-0.32621214
19	0xbeaa278d	-0.332333
20	0x3df63312	0.1202146
21	0x3defedb7	0.117152624
22	0xbe013026	-0.12616023
23	0xbe7c2037	-0.24621664
24	0xbe395eae	-0.18102524
25	0xbdda9a1d	-0.10673926
26	0x3daa1bef	0.08306109
27	0xbe0d9ca6	-0.13829288
28	0xbe0ecdc6	-0.13945684
29	0xbde30f7d	-0.110869385
30	0xbe6bd72e	-0.23031303
31	0xbe56ea08	-0.20987713
32	0xbe6330eb	-0.2218663
33	0x3cadf7bb	0.021236291
34	0x3da86ca6	0.08223848
35	0xbdcb263e	-0.099194035
36	0xbe915008	-0.28381371
37	0x3e0fda51	0.14048125
38	0x3e510bfe	0.20414731
39	0x3e0eca83	0.1394444
40	0xbe41cff0	-0.18926978
41	0xbe3c7cf5	-0.18407042
42	0x3d17ba0e	0.03704267
43	0x3e254229	0.1613852
44	0x3dff1506	0.12455182
45	0xbc277e19	-0.010222935
46	0x3e823322	0.25429636
47	0x3e7b0bf3	0.24516277
48	0x3da88b4d	0.082296945
49	0x3e3c6a5e	0.18399951
50	0xbd760d2b	-0.06007115
51	0xbe12a8ab	-0.14322154
52	0xbd74725c	-0.059679374
53	0xbe3cabec	-0.18424958
54	0x3e17f182	0.14838222
55	0xbe5c8816	-0.21536288
56	0xbd0ad4a2	-0.03389419
57	0xbd162a1c	-0.036661252
58	0xbdb295cb	-0.08719977
59	0x3e4f240e	0.20228598
60	0xbcfdacf7	-0.030966265
61	0xbe18df14	-0.14928848
62	0x3e5f22fe	0.21790692
63	0x3e29d70e	0.16585943
64	0x3de4579a	0.11149521
65	0xbd1153be	-0.035480253
66	0x3e6fe090	0.23425508
67	0x3de71f26	0.11285238
68	0x3e82fcc0	0.25583458
69	0x3d9c8e2d	0.076443054
70	0x3b9b1c59	0.004733604
71	0x3d6e3c5f	0.058163043
72	0xbd5c8924	-0.053841725
73	0xbc0df2c1	-0.008663834
74	0xbb971a6f	-0.0046113054
75	0x3e02c672	0.12771013
76	0xbe8c0ed3	-0.2735506
77	0xbe4f8aa2	-0.20267728
78	0xbed1fe45	-0.41014305
79	0xbe769bee	-0.2408292
80	0x3e91856c	0.28422105
81	0x3e1aa146	0.15100583
82	0xbe8954e8	-0.2682259
83	0x3bb99520	0.005663529
84	0xbdbd0123	-0.092287324
85	0x3e831a74	0.2560612
86	0x3e81146c	0.25210893
87	0x3e10d407	0.14143382
88	0xbd75a670	-0.05997318
89	0x3e262135	0.16223605
90	0x3e332e38	0.174981
91	0x3e641f44	0.22277552
92	0x3e7b2022	0.24523976
93	0x3da2c0c6	0.07946925
94	0x3e71800f	0.23584007
95	0xbe5ae9e8	-0.2137829
96	0xbde394a2	-0.11112334
97	0x3e191ced	0.1495244
98	0xbd36421c	-0.04449664
99	0xbddfd13d	-0.10928581
100	0x3e1537ff	0.14572142
101	0x3c61d094	0.013782639
102	0xbe24ab7d	-0.16081043
103	0x3ddff1f3	0.1093482
104	0x3d582aee	0.052775316
105	0xbcb83b0e	-0.022489097
106	0x3e652ea1	0.22381069
107	0xbdb09a3b	-0.08623167
108	0x3d0c563d	0.03426193
109	0x3e194799	0.14968719
110	0xbc1491d6	-0.009067973
111	0x3d895997	0.06706541
112	0x3e3034db	0.17207663
113	0xbe245ea6	-0.1605173
114	0xbdade6c4	-0.08491281
115	0x3dd02a5e	0.10164331
116	0x3e87fbf1	0.26559404
117	0x3e290953	0.16507463
118	0xbe06eedb	-0.13177054
119	0x3e295b3e	0.16538712
120	0x3df47e92	0.11938204
121	0x3ca9cca9	0.020727472
122	0x3cac68e5	0.021046111
123	0xbdc37117	-0.095430546
124	0xbda8005f	-0.08203196
125	0x3deb4aed	0.114889
126	0x3e308b7b	0.17240708
127	0x3ea5aefd	0.32360068
128	0x3cebb329	0.028771954
129	0x3e8723da	0.2639454
130	0x3e49011b	0.19629328
131	0x3eba1c31	0.36349633
132	0x3e660831	0.22464062
133	0x3e176e4d	0.1478817
134	0x3da0b045	0.07846121
135	0x3d028a38	0.031870097
136	0x3d6fdf75	0.058562715
137	0xbd78d839	-0.06075308
138	0x3e30aaef	0.17252706
139	0x3dc53395	0.09628979
140	0xbe5a9ede	-0.21349666
141	0xbeb35877	-0.3502843
142	0xbde0cd44	-0.10976651
143	0xbe97c4af	-0.29642245
144	0xbd998dbd	-0.074977376
145	0xbe850420	-0.2597971
146	0xbebaef54	-0.36510718
147	0xbeaf6f53	-0.3426462
148	0xbd967335	-0.07346193
149	0xbd69c388	-0.05707124

C1.bias f4 [6]
0	0xbe1fb14a	-0.15594974
1	0xbdc383f9	-0.09546656
2	0xbd0435a2	-0.03227771
3	0x3e192104	0.14954
4	0xbd5da2b3	-0.05411024
5	0x3dbfbb39	0.09361882

C3.weight f4 [16, 6, 5, 5]
0	0xbe0d703c	-0.13812345
1	0xbcebed66	-0.028799724
2	0x3c7432f0	0.014904723
3	0x3c968c56	0.018377464
4	0x3d223c9d	0.039608587
5	0x3cc3ff28	0.023925379
6	0xbb95b5b4	-0.00456878
7	0x3c98c7e3	0.01865
8	0x3e06f33d	0.13178726
9	0x3d06de1c	0.032926664
10	0x3ce0d5bf	0.027445672
11	0xbe141137	-0.14459692
12	0x3c353619	0.011060261
13	0x3d198b09	0.03748611
14	0x3d9d8818	0.076919734
15	0xbd7a2cc7	-0.06107786
16	0xbe03222b	-0.12806003
17	0xba890633	-0.0010454118
18	0x3c9541c9	0.018219845
19	0xbbcbe150	-0.0062219277
20	0x3dd388ba	0.10328813
21	0x3d55b3cf	0.052173432
22	0x3d930d44	0.071802646
23	0xb99f43ed	-0.00030377452
24	0xbd0b6032	-0.034027286
25	0x3daaa1bb	0.08331629
26	0xbdac92b0	-0.08426416
27	0xbd801682	-0.06254293
28	0x3bd8a525	0.0066114836
29	0x3d03bf26	0.032164715
30	0xbdc3a634	-0.09553185
31	0xbad6da3d	-0.0016391944
32	0xbd58fefc	-0.052977547
33	0x3de3f05e	0.11129831
34	0x3ddd625e	0.10809778
35	0xbe8bafc5	-0.2728254
36	0xbe2b6a2e	-0.16739723
37	0xbde6761c	-0.11252996
38	0xbd1099de	-0.03530299
39	0xbc671ac1	-0.0141055
40	0xbd49d409	-0.049274478
41	0xbe3972c6	-0.18110189
42	0xbd6676c8	-0.056265622
43	0x3d055762	0.032554038
44	0xbc2c0c79	-0.010501021
45	0x3e188d3e	0.1489763
46	0x3da9220b	0.08258446
47	0x3d35827f	0.044313904
48	0x3dbdc527	0.092661195
49	0xbd92318a	-0.07138355
50	0x3d915ae1	0.07097412
51	0xbd2eead3	-0.042704415
52	0x3c694d36	0.0142396
53	0xbd324397	-0.04352149
54	0xbda5e5f1	-0.081004985
55	0xbab6bc42	-0.0013941603
56	0xbcc67ca9	-0.024229364
57	0xbd720bc3	-0.059093248
58	0x3d934ebc	0.07192752
59	0x3ada4839	0.0016653604
60	0xbe2213d9	-0.15827884
61	0xbe2d7b6c	-0.16941613
62	0xbd3258ac	-0.043541595
63	0x3c31a4f3	0.01084255
64	0x3d1d6cd1	0.038433854
65	0xbe217c7f	-0.15770148
66	0xbe2eff76	-0.17089638
67	0xbe19ad32	-0.15007475
68	0xbce2546f	-0.027628152
69	0xbd1b6efc	-0.03794764
70	0x3d8cb8af	0.06871163
71	0x3dbe54cc	0.092935175
72	0xbd078adc	-0.03309141
73	0xbd6bd2d9	-0.057574127
74	0xbd7a4e89	-0.061110053
75	0x3d6495d6	0.055806957
76	0x3dcb2729	0.099195786
77	0x3ded80b7	0.11596816
78	0x3de18794	0.110121876
79	0xbd9d8c21	-0.07692743
80	0x3d626785	0.055274505
81	0x3dbc7c65	0.09203414
82	0x3e244757	0.16042839
83	0x3e161d87	0.14659701
84	0x3d9189d8	0.0710637
85	0x3c4299a4	0.011877451
86	0xbe0a36c1	-0.1349745
87	0x3d05d5f7	0.032674756
88	0x3d56262c	0.052282497
89	0xbd02addf	-0.031904098
90	0xbd1dd451	-0.03853256
91	0xbe13f189	-0.14447607
92	0xbea601df	-0.32423303
93	0xbe325d9f	-0.17418526
94	0xbdb0ef18	-0.086393535
95	0xbdca0224	-0.098636895
96	0xbd9f7b33	-0.0778717
97	0x3d65575c	0.055991516
98	0x3d0da8fe	0.03458499
99	0xbca2272e	-0.019794073
100	0x3de3b4d2	0.11118473
101	0xbd0b3ee9	-0.033995543
102	0x3b264374	0.0025369795
103	0x3d7b7e74	0.061399892
104	0x3c952ef0	0.018210858
105	0xbd784ecf	-0.060622033
106	0xbda8abeb	-0.08235916
107	0xbbdf800e	-0.006820685
108	0xbbc4f2ca	-0.006010388
109	0x3d381577	0.044942345
110	0xbdff76b6	-0.12473814
111	0xbe4794a4	-0.19490296
112	0xbe03803e	-0.1284189
113	0xbd819a8a	-0.06328304
114	0xbdbfa669	-0.09357912
115	0xbd64b001	-0.055831913
116	0xbe44a456	-0.19203314
117	0xbe4ee484	-0.2020436
118	0xbe4178e3	-0.18893771
119	0xbe1789f4	-0.14798719
120	0xbd82eb59	-0.06392545
121	0x3ce3722c	0.027764402
122	0xbdb6460e	-0.089000806
123	0xbc46d9eb	-0.012136917
124	0x3d1876c1	0.037222628
125	0x3d8611b3	0.065463446
126	0xbcfcfcdf	-0.030882297
127	0xbdfa7a04	-0.12230304
128	0xbd83c240	-0.064335346
129	0xbe0d9d51	-0.13829543
130	0x3df5f0c8	0.12008816
131	0x3cd8db7d	0.026471848
132	0x3cb37628	0.021906927
133	0x3dc64b2a	0.09682305
134	0x3dea97aa	0.11454709
135	0x3e1bfcff	0.15233229
136	0x3e1ede6f	0.15514539
137	0x3c85ad38	0.016317949
138	0x3dff15d0	0.12455332
139	0x3e2be3a3	0.16786055
140	0xbdb40625	-0.087902345
141	0xba2a4c5c	-0.0006496364
142	0xbd7b9d0c	-0.06142907
143	0x3c360911	0.01111056
144	0x3e2a8da3	0.16655593
145	0xbdf0486c	-0.117325634
146	0xbe850638	-0.25981307
147	0xbe95c502	-0.29251868
148	0xbe590693	-0.21193914
149	0xbd919668	-0.07108766
150	0x3da0fbfd	0.07860563
151	0x3dc79d61	0.097468145
152	0x3e257509	0.16157927
153	0x3e0df230	0.13861918
154	0xbc6b7e5a	-0.014373386
155	0x3da52080	0.080628395
156	0x3d083267	0.033251192
157	0xbd2235c4	-0.039602056
158	0xbd7040e6	-0.058655642
159	0xbe3a5b4c	-0.1819889
160	0x3df02e1a	0.11727543
161	0xbd8fbff9	-0.07019038
162	0xbd8148c7	-0.06312709
163	0xbe0114b5	-0.12605555
164	0xbd96d568	-0.07364923
165	0xbd795e10	-0.06088072
166	0xbd673a3d	-0.056452025
167	0xbbe76d80	-0.007062614
168	0xbd3ee227	-0.046602394
169	0xbd396e42	-0.045271166
170	0x3909b0b3	0.00013131164
171	0xbcd40e3f	-0.0258857
172	0xbdafcca3	-0.08583953
173	0xbe07c40f	-0.13258384
174	0x3d02c178	0.031922787
175	0x3dcb62b2	0.09930934
176	0x3da8e28d	0.08246336
177	0xbe32b107	-0.17450343
178	0x3d974c09	0.073875494
179	0x3de3537d	0.110999085
180	0xbba6369b	-0.0050724274
181	0xbd6c8b98	-0.057750314
182	0xbdfb3b61	-0.12267185
183	0xbde41f8e	-0.11138831
184	0xbdb5300a	-0.08847053
185	0x3d9ec6df	0.077527754
186	0xbddd43d0	-0.1080395
187	0x3b45e398	0.003019547
188	0x3da9f71e	0.08299087
189	0x3d73d4cb	0.059529107
190	0x3d9fc6cc	0.07801589
191	0xbdb178d9	-0.08665628
192	0x3cc57ce5	0.024107406
193	0x3c87e08a	0.01658656
194	0x3d622ac5	0.05521657
195	0xbe0ae3e7	-0.135635
196	0xbe931e90	-0.28734255
197	0xbe756800	-0.23965454
198	0xbd096956	-0.03354772
199	0xbd60cdcd	-0.054883767
200	0x3c539b0d	0.012915385
201	0xbb215560	-0.0024617538
202	0xbde2786b	-0.11058124
203	0x3d52ab2a	0.051432766
204	0x3e21dc6a	0.15806738
205	0x3d44df6e	0.04806464
206	0x3b0d96d9	0.0021604805
207	0xbe69adc6	-0.22820196
208	0xbe2c2cf3	-0.16814022
209	0xbe43e98e	-0.19132063
210	0x3deb52c1	0.114903934
211	0xbdd5153a	-0.10404439
212	0xbdf6841f	-0.12036919
213	0x3cd11748	0.025523797
214	0xbdf20ba3	-0.11818626
215	0x3cbd3950	0.023098618
216	0x3c6f404e	0.014602734
217	0x3d0532b2	0.03251905
218	0x3df9ffa7	0.12206965
219	0x3c20f484	0.009823922
220	0xbd2741e9	-0.04083434
221	0xbdd491df	-0.10379385
222	0xbe5b01ff	-0.2138748
223	0xbdc7238b	-0.09723576
224	0xbd787a06	-0.060663246
225	0xbe08e32e	-0.13367912
226	0x3cc4def0	0.024032086
227	0x3db65e43	0.08904698
228	0xbd0277df	-0.0318526
229	0xbcea5cd6	-0.02860872
230	0xbe2a488d	-0.16629238
231	0xbcb6b70f	-0.022304086
232	0x3de5d4a5	0.11222199
233	0xbe1185f8	-0.14211261
234	0xbe720287	-0.23633777
235	0xbe21a2c2	-0.15784743
236	0x3dd52223	0.10406902
237	0xbc2f4395	-0.010697265
238	0xbdd199b4	-0.10234395
239	0xbd87dd77	-0.06634038
240	0x3d733577	0.05937716
241	0x3e26fb98	0.16306913
242	0x3dbf32fb	0.09335896
243	0x3e4ecd12	0.20195416
244	0x3de2b141	0.11068965
245	0xbc31d3df	-0.010853737
246	0xbdb42ee9	-0.0879801
247	0xbe081489	-0.13289084
248	0xbd8bea28	-0.06831771
249	0xbcc73d5c	-0.02432125
250	0xbdcd2499	-0.10016746
251	0xbb5dc7d5	-0.0033841033
252	0x3ce85338	0.028359994
253	0xbe1e4932	-0.1545761
254	0xbe100aba	-0.14066592
255	0xb99cf895	-0.00029939847

C3.bias f4 [16]
0	0x3d4ed367	0.050494578
1	0xbc28b64f	-0.010297372
2	0xbad58022	-0.0016288797
3	0xbda00c7d	-0.07814882
4	0xbcd161fa	-0.025559414
5	0xbd2bae24	-0.04191412
6	0x3d0b7d51	0.034055058
7	0x3d63500b	0.055496257
8	0xbd92b6a2	-0.07163741
9	0xbd2a2b6c	-0.041545317
10	0xbd25d3f7	-0.04048535
11	0xbc9041b9	-0.017609464
12	0xbbb84d56	-0.0056244535
13	0x3cb47056	0.022026222
14	0xbd234805	-0.039863605
15	0xbd6ad6cd	-0.057333756

C5.weight f4 [120, 16, 5, 5]
0	0x3c40ecdb	0.011775221
1	0xbddff342	-0.109350696
2	0xbdbd3fd4	-0.0924069
3	0xbe5e3a9a	-0.21702042
4	0xbdd77dc4	-0.10522035
5	0xbbdf2419	-0.006809723
6	0x3d615cee	0.055020265
7	0xbc5c980f	-0.013463988
8	0x3be0e1bb	0.0068628467
9	0xbd8a8829	-0.06764252
10	0x3d45888a	0.048225917
11	0x3dedbf27	0.11608725
12	0x3d8af1d9	0.0678441
13	0x3c81eebb	0.015860906
14	0x3cf2fe73	0.029662346
15	0x3ddbc463	0.10730817
16	0x3da721c7	0.081607394
17	0x3dab28b1	0.08357371
18	0x3d5bea60	0.053690314
19	0x3ab91c4c	0.0014122813
20	0xbd250c54	-0.04029496
21	0xbd123abe	-0.035700552
22	0xbd504501	-0.050847057
23	0x3cab34be	0.020899173
24	0xbbcef34a	-0.0063156234
25	0xbd2609d2	-0.04053671
26	0xbd00f444	-0.03148295
27	0xbd0a32c4	-0.03373982
28	0x3d287745	0.04112937
29	0xbdcf28f7	-0.10115235
30	0xbe2258e2	-0.15854219
31	0x3d630f16	0.05543431
32	0xbc4aff99	-0.012390041
33	0xbdd1373b	-0.102156125
34	0x3dbdb841	0.09263659
35	0x3d6b218a	0.057405032
36	0x3e33a601	0.17543794
37	0x3d610e49	0.054945264
38	0xbd8d3aec	-0.06896004
39	0xbd8f86fc	-0.07008168
40	0xbdc13e21	-0.09435678
41	0xbdbaa458	-0.09113377
42	0xbc9e366c	-0.01931306
43	0x3c2a3419	0.010388398
44	0xbd15f07b	-0.036606293
45	0xbd000524	-0.031254902
46	0xbe03ef28	-0.128842
47	0x3d4e9e79	0.0504441
48	0x3d687cae	0.05675953
49	0xbd30eb51	-0.043193165
50	0x3d25ebcc	0.040508077
51	0x3c99b78e	0.018764284
52	0xbd0f2e6a	-0.034956373
53	0xbd3fb3cb	-0.046802323
54	0xbc0dacc8	-0.008647151
55	0xbd4194cb	-0.04726104
56	0x3c222280	0.009895921
57	0x3d26219f	0.040559407
58	0xbc603e94	-0.013686795
59	0xbcd97e39	-0.026549445
60	0x3c2889bd	0.010286746
61	0xbb63b1d3	-0.0034743443
62	0x3dc688b2	0.09694041
63	0x3e03c819	0.128693
64	0xbcd5a899	-0.02608137
65	0xba8c2ebc	-0.001069508
66	0x3cc66a8c	0.024220727
67	0x3d2e3c1a	0.042537786
68	0x3c023089	0.007946142
69	0xbd88751d	-0.066629626
70	0x3c1154ef	0.008870347
71	0xbd80bbe7	-0.062858395
72	0xbe786ec7	-0.24261008
73	0xbd95d29a	-0.0731556
74	0xbca10d72	-0.019659732
75	0x3db7f909	0.089830466
76	0x3d1b8241	0.037966017
77	0x3cce645e	0.025194343
78	0x3d16b925	0.03679766
79	0xbd277543	-0.040883314
80	0x3d1df694	0.038565233
81	0xbc83fe9b	-0.016112616
82	0xbd5d363d	-0.054006804
83	0x3c6415d3	0.013921219
84	0x3e3f9624	0.18709618
85	0xbe581021	-0.21099903
86	0xbd91a1ad	-0.07110915
87	0x3bfb8056	0.007675211
88	0x3d5d4e06	0.054029487
89	0x3d878242	0.066166416
90	0x3cd06335	0.02543793
91	0x3ca6d81c	0.02036672
92	0x3cdb8128	0.026794985
93	0x3c5437ec	0.012952786
94	0xbd831340	-0.06400156
95	0x3e255134	0.16144258
96	0x3d82babe	0.063832745
97	0x3d433ac6	0.047663473
98	0x3d9e3469	0.0772484
99	0xbbb0ce30	-0.005395673
100	0xbcd3720f	-0.025811223
101	0xbd346fbc	-0.04405187
102	0xbcdb0a2e	-0.026738252
103	0x3c19f561	0.009396882
104	0xbcb3cd45	-0.021948466
105	0x3b35e7db	0.0027756605
106	0x3d9d2914	0.07673851
107	0x3d6e3fa1	0.05816615
108	0xbc80c141	-0.01571715
109	0xbb02a56e	-0.001993503
110	0xbcdcc88c	-0.026951097
111	0x3d9b181a	0.075729564
112	0x3df5727a	0.11984725
113	0x3d9a798e	0.07542716
114	0x3d62caf0	0.055369318
115	0x3b93b890	0.0045080855
116	0xbd0bba9c	-0.03411351
117	0xbbf57cfd	-0.0074917064
118	0x3be1c040	0.006889373
119	0xbdd1d662	-0.102459684
120	0xbd94bd29	-0.07262642
121	0xbe0c2b1b	-0.13688318
122	0xbd4e64de	-0.050389163
123	0xbdb53444	-0.088478595
124	0xbda64e1e	-0.081203684
125	0x3c599994	0.013281245
126	0xbc2e796c	-0.010649066
127	0xbd550895	-0.052010138
128	0x3d069095	0.032852728
129	0xbdb66115	-0.08905236
130	0x3bdef586	0.006804171
131	0xbc909973	-0.017651295
132	0xbd31efe1	-0.043441657
133	0x3c8ff58a	0.017573137
134	0x3d4096e0	0.047018886
135	0xbe569604	-0.20955664
136	0xbdccdb3b	-0.100027524
137	0x3d663737	0.056205
138	0x3cfa0edd	0.030524665
139	0x3c38d2fe	0.011280773
140	0xbe0c2179	-0.13684644
141	0x3d950438	0.07276195
142	0xbc0aba5f	-0.008467286
143	0x3dbf1d56	0.09331767
144	0x3deb1aae	0.11479698
145	0x3db09f11	0.086240895
146	0x3c689d6e	0.01419769
147	0x3d8203be	0.0634837
148	0x3e22beb1	0.15893055
149	0x3d9cd855	0.076584496
150	0xbd2a91cc	-0.04164295
151	0xbd202cc1	-0.03910518
152	0x3cc810cd	0.024422074
153	0xbd5adce2	-0.053433307
154	0xbd0e4287	-0.034731414
155	0xbc2c6f4d	-0.010524583
156	0x3dc3425b	0.09534141
157	0xbc1ba232	-0.00949912
158	0xbdc0c185	-0.09411911
159	0x3da6d12d	0.08145366
160	0xbdad6d48	-0.08468109
161	0xbd685bc7	-0.05672815
162	0xbd85e275	-0.06537334
163	0xbd378b3d	-0.044810522
164	0x3d923f97	0.07141035
165	0xbdd03d94	-0.10167995
166	0x3c9de46a	0.019273955
167	0x3ca277fd	0.019832605
168	0xbc3c1afb	-0.011481042
169	0xbd06127e	-0.03273248
170	0x3d604ab7	0.054758754
171	0x3d5e78f0	0.054314554
172	0x3cb55885	0.022136936
173	0x3c235769	0.009969571
174	0xbde67bb5	-0.11254064
175	0xbc897e7c	-0.016783945
176	0xbcca62c0	-0.02470529
177	0xbda2cf52	-0.079496995
178	0xbc9286de	-0.017886575
179	0x3cf94826	0.03042991
180	0xbde12fae	-0.10995422
181	0xbe2b71a4	-0.16742569
182	0xbbef4d2a	-0.0073029
183	0xbd1373a3	-0.03599895
184	0x3d569d24	0.052395955
185	0xbd9bfc62	-0.076164976
186	0xbdabb070	-0.08383262
187	0x3dec34a2	0.115334764
188	0x3cc283cb	0.023744484
189	0x3e24ff2b	0.16112964
190	0xbda3edde	-0.08004354
191	0x3db829a8	0.0899232
192	0x3da73ae6	0.08165531
193	0xbbfcf0e4	-0.007719146
194	0x3dd76088	0.10516459
195	0x3d5e2095	0.05423029
196	0xbb3f8896	-0.0029225699
197	0x3d226c40	0.039654016
198	0x3c9952b8	0.018716201
199	0x3db24c38	0.08705944
200	0x3d2e185d	0.042503703
201	0x3daf45dd	0.08558247
202	0xbc3f7c4f	-0.011687352
203	0x3c4d40e9	0.012527683
204	0x3d186e5f	0.037214633
205	0xbc46e664	-0.01213989
206	0xbd5ab5d3	-0.053396057
207	0x3d2ae93e	0.041726343
208	0x3c78adad	0.015178126
209	0x3cc99e51	0.024611624
210	0xbde96bd3	-0.11397519
211	0x3d167abd	0.036738146
212	0x3d4da1ce	0.050203137
213	0x3c691f54	0.014228661
214	0xbd922619	-0.07136173
215	0x3d22e262	0.039766677
216	0x3d5ac346	0.053408884
217	0x3dbfd82c	0.093674034
218	0x3d8a6bfd	0.067588784
219	0xbdda68f2	-0.10664548
220	0x3ddb788e	0.10716353
221	0xbcfd7383	-0.03093887
222	0xbe12fcac	-0.14354199
223	0xbdc6a439	-0.09699292
224	0xbe015a86	-0.12632188
225	0x3cae3320	0.021264613
226	0x3d9fb0a4	0.077973634
227	0x3d3b6c38	0.045757502
228	0x3d0f1966	0.03493633
229	0x3b59de77	0.0033244172
230	0x3dcefc6b	0.10106739
231	0x3dd58982	0.10426618
232	0xbd141bc9	-0.03615931
233	0xbcfca41e	-0.030839976
234	0x3aa08d4f	0.0012249144
235	0xbdf49575	-0.11942569
236	0x3b60e996	0.0034318916
237	0xbcda1930	-0.026623338
238	0xbd429875	-0.047508676
239	0x3cb9388b	0.02260997
240	0x3abb1b6d	0.0014275141
241	0x3d0e1a8d	0.03469329
242	0xbd9a16ed	-0.07523904
243	0xbd82742b	-0.063698135
244	0xbdc739d2	-0.09727825
245	0xbd962d18	-0.0733282
246	0xbd3de8f5	-0.046364743
247	0x3d1c4008	0.038147002
248	0xbd909aeb	-0.07060798
249	0xbd799aca	-0.060938634
250	0xbce8b1f8	-0.028405175
251	0xbcd83e09	-0.026396768
252	0xbc9a209e	-0.018814381
253	0x3d35d3e6	0.044391535
254	0x3d4eb1f0	0.050462663
255	0x3d429656	0.047506653

C5.bias f4 [120]
0	0xbd41a4ec	-0.047276422
1	0xbcc0ded0	-0.023543745
2	0xbd79008f	-0.06079155
3	0xbd1e28c4	-0.038613096
4	0xbc1b6d51	-0.009486512
5	0x3c3a559f	0.011372953
6	0x3becdc66	0.007228422
7	0x3b4e6229	0.0031491613
8	0x3bab4f6b	0.005227973
9	0x3d864de2	0.06557824
10	0xbc72562c	-0.014791053
11	0xbc9b71f3	-0.018975234
12	0xbd9293d8	-0.07157105
13	0x3d480e8f	0.04884201
14	0xbd8e84c2	-0.06958915
15	0xbb2da18c	-0.0026493995
16	0x39f31a80	0.00046368316
17	0x3c174286	0.009232169
18	0x3d00f43c	0.03148292
19	0x3cb7006c	0.022339068
20	0xba0a8c53	-0.0005285192
21	0xbc765f0c	-0.015037309
22	0xbceb3378	-0.028711066
23	0x3cfb20e3	0.03065533
24	0x3dd65697	0.104657345
25	0x3bcacf60	0.006189272
26	0xbda96cf8	-0.08272737
27	0x3d214e17	0.039381113
28	0xbc9c7e3a	-0.019103158
29	0x39da8de9	0.00041685932
30	0x3da6ce65	0.081448354
31	0xbd8d67b6	-0.06904547
32	0xbd0e319a	-0.034715272
33	0x3c7edeba	0.015556032
34	0x3c99b49b	0.018762877
35	0x3db932fc	0.090429276
36	0x3bdbcb40	0.006707579
37	0xbb861677	-0.0040920335
38	0x3d16c52b	0.036809128
39	0x3d0dabdb	0.034587722
40	0xbd1ea7bf	-0.038734194
41	0xbd4cda92	-0.050013132
42	0xbd895983	-0.06706526
43	0x3c1e377b	0.009656782
44	0x3d55fbc8	0.05224207
45	0x3d4075cd	0.046987344
46	0xbccbf3bf	-0.0248965
47	0xbc21234c	-0.009835076
48	0x3c6d0dd7	0.014468632
49	0x3ae1500d	0.0017189995
50	0x3c957caa	0.018247921
51	0x3c63d487	0.013905651
52	0xbcea5fc2	-0.028610114
53	0xbd0f999d	-0.035058606
54	0x3b432272	0.002977517
55	0xbcf2ade8	-0.02962394
56	0xbd451586	-0.04811623
57	0xbd6394f3	-0.05556197
58	0x3c864647	0.016390933
59	0x3b29f4b5	0.002593321
60	0x3bc615ec	0.0060450938
61	0xbcd5b389	-0.026086586
62	0xbaa37f25	-0.0012473805
63	0xbc8bb698	-0.01705484
64	0x3be110ae	0.0068684435
65	0x3d92a838	0.071609914
66	0x3d04e9ce	0.032449536
67	0x3b6b2084	0.0035877535
68	0x3c915794	0.017741956
69	0x3c491444	0.012272898
70	0xbaae6249	-0.0013304438
71	0x3c4310df	0.011905878
72	0xbcdd7468	-0.027033046
73	0x3d2b5f31	0.04183883
74	0xbc9a017e	-0.01879954
75	0xbce55fcc	-0.027999781
76	0xbcb4f8e4	-0.022091337
77	0xbc553d1b	-0.013015057
78	0xbd70fc8b	-0.058834594
79	0xbcb55b44	-0.022138245
80	0x3cc7466e	0.024325576
81	0x3ceb3b32	0.02871475
82	0x3d3da010	0.046295226
83	0xbccc7e9a	-0.024962712
84	0xbc000247	-0.007813043
85	0xbc2da493	-0.01059832
86	0xbd3a8e56	-0.0455459
87	0xbc037ba5	-0.008025085
88	0xbc67eeba	-0.014156038
89	0x3ada9ac6	0.0016678206
90	0x3ca253a0	0.019815266
91	0x3d2c5d69	0.04208127
92	0xbcc45bc9	-0.023969548
93	0xbd2951cb	-0.04133777
94	0x3d653695	0.055960257
95	0x3be33d2b	0.006934782
96	0xbcdb7714	-0.02679018
97	0x3cbb4191	0.022858413
98	0xbce35fb1	-0.02775559
99	0x3bcea4db	0.0063062734
100	0xb932a59a	-0.00017037094
101	0xbc3ccfec	-0.011524182
102	0x3d0f3512	0.03496272
103	0xbd3e78fc	-0.0465021
104	0x3db993cb	0.090613924
105	0x3d2ebc07	0.042659786
106	0x3d03a2fc	0.032137856
107	0x3cd0e419	0.02549939
108	0x3cc54583	0.024080997
109	0xbc0ba325	-0.008522783
110	0xbd364fa3	-0.04450954
111	0xbc56488d	-0.013078821
112	0xbd3ef5af	-0.04662102
113	0xbd0e2495	-0.034702856
114	0x3a6cbf33	0.00090311765
115	0x3c80efba	0.01573931
116	0x3c9d1e1f	0.019179402
117	0x3d82482b	0.06361421
118	0xbd42944b	-0.047504704
119	0x3bb8fa54	0.005645076

F6.weight f4 [84, 120]
0	0xbe0290d1	-0.12750556
1	0x3d506cbd	0.05088495
2	0x3c1ecb2f	0.009691997
3	0x3db4fdb4	0.088374525
4	0xbdb962a2	-0.09052016
5	0x3d1d5d03	0.03841878
6	0x3e1fe97f	0.15616415
7	0x3d03fbd3	0.03222258
8	0xbb6d1c76	-0.0036180294
9	0xbc206462	-0.009789558
10	0x3da27ffe	0.07934569
11	0xbe47c638	-0.19509208
12	0x3da47cea	0.08031638
13	0x3c522c37	0.012827924
14	0xbd32a6b7	-0.043616023
15	0xbdcf548e	-0.101235494
16	0x3d36bdfe	0.044614784
17	0xbe23c3de	-0.15992686
18	0xbd2bada8	-0.04191366
19	0x3cef9bf2	0.029249165
20	0x3d9bee66	0.0761383
21	0x3ddf5728	0.109052956
22	0xbd8222a4	-0.063542634
23	0xbdb10e1f	-0.086452715
24	0xbbef9b73	-0.007312232
25	0x3d307634	0.043081477
26	0x3d88a2c4	0.0667167
27	0x3dea9343	0.11453869
28	0xbe11ca1a	-0.14237252
29	0x3cb83a95	0.022488872
30	0xbd258293	-0.04040773
31	0xbd81bcbd	-0.06334827
32	0xbcf7d4c4	-0.030252822
33	0xbd415f2b	-0.0472099
34	0xbbc85167	-0.0061132195
35	0x3d80c79a	0.06288071
36	0xbdec0a31	-0.11525381
37	0xbcfa4cea	-0.030554254
38	0x3d278b86	0.040904544
39	0x3d00b080	0.031418324
40	0x3da8dbbb	0.08245035
41	0xbcfc6098	-0.030807778
42	0x3dce9c98	0.10088462
43	0x3df331de	0.11874746
44	0xbe1eb15f	-0.15497349
45	0x3c33f03f	0.010982572
46	0xbcb7478d	-0.022372985
47	0xbd4bf870	-0.049797475
48	0x3c691602	0.0142264385
49	0xbd869fd6	-0.06573455
50	0xbd5ff544	-0.054677263
51	0x3d1947d6	0.037422024
52	0x3dcf09b9	0.10109276
53	0xbcc26782	-0.023730997
54	0x3d71cceb	0.059033316
55	0x3d2a17b0	0.041526496
56	0x3d3123ba	0.043246962
57	0x3db0cc48	0.086327136
58	0x3da89afb	0.08232685
59	0x3dcf21cb	0.10113867
60	0xb88fce18	-6.857159e-05
61	0x3d6c9031	0.0577547
62	0xbce1c584	-0.027560003
63	0x3dc7be6c	0.09753117
64	0xbcf84a91	-0.030308994
65	0xbc011b31	-0.007880018
66	0x3da90c55	0.08254305
67	0x3ae7efd3	0.0017695375
68	0x3d2a6566	0.041600607
69	0x3b24ab01	0.002512634
70	0xbcae5f7f	-0.02128577
71	0xbd328ae6	-0.043589495
72	0xbd283f81	-0.041076187
73	0xbce10cd6	-0.027471941
74	0x3e11fc43	0.14256386
75	0x3da62e2b	0.081142746
76	0xbdbaba6a	-0.09117587
77	0x3cb58f65	0.022163102
78	0x3c7abc04	0.0153036155
79	0x3c95ba5d	0.018277341
80	0xbd2a4430	-0.041568935
81	0x3c3596ab	0.011083285
82	0x3d6db448	0.058033258
83	0x3dfc8221	0.123295076
84	0x3d4c156a	0.04982511
85	0xbd2a5c88	-0.04159215
86	0x3dbdbbe2	0.092643514
87	0xbdd71c99	-0.105035014
88	0x3d08f6bd	0.033438433
89	0x3dfdd2e7	0.12393742
90	0xbd917d40	-0.07103968
91	0x3d9bfd2c	0.07616648
92	0x3d1cbdba	0.038266875
93	0x3d14e957	0.036355343
94	0xbdc72133	-0.09723129
95	0xbd407d55	-0.046994526
96	0x3d38a765	0.045081515
97	0xbe69fe38	-0.22850883
98	0xbd7e1fb5	-0.062041957
99	0x3d4e0dbb	0.050306063
100	0x3cea99cd	0.028637791
101	0x3d4972dc	0.049181804
102	0xbb7342cd	-0.0037118674
103	0x3e3cd907	0.18442164
104	0x3cbb3692	0.02285317
105	0xbcee43ec	-0.029085122
106	0xbcefa623	-0.029254025
107	0x3e0d3fde	0.13793895
108	0xbe080863	-0.1328445
109	0x3be3cb71	0.0069517423
110	0xbd0b3f34	-0.033995822
111	0xbccdbf8d	-0.025115753
112	0x3d298206	0.041383766
113	0xbc76ed8c	-0.015071284
114	0x3d706fdb	0.058700424
115	0xbe394abc	-0.18094915
116	0xbc98778e	-0.018611696
117	0x3e082cc2	0.13298324
118	0xbda4faf2	-0.080556765
119	0x3c7ced37	0.015437416
120	0x3c6c79ae	0.014433308
121	0x3d22131e	0.039569013
122	0x3dfd69a4	0.12373665
123	0x3d816351	0.06317771
124	0x3c8058eb	0.0156674
125	0x3d96511a	0.07339688
126	0xbd9e581d	-0.0773165
127	0x3d620468	0.055179983
128	0xbc8c479f	-0.017123995
129	0x3ce0679a	0.027393151
130	0x3dc38cea	0.095483616
131	0x3e712c2c	0.23552006
132	0xbbb3e4ca	-0.0054899203
133	0xbcfc4ee0	-0.03079933
134	0x3ca918aa	0.020641644
135	0xbd81241e	-0.06305717
136	0x3d46b964	0.048516646
137	0x3da08bde	0.078391775
138	0xbc9999d9	-0.018750118
139	0x3d1096da	0.035300113
140	0x3df0f4b7	0.11765426
141	0xbc686f7f	-0.014186739
142	0xbdb74107	-0.0894795
143	0x3ce3c65a	0.027804542
144	0x3d58fbda	0.05297456
145	0x3d1cc2f8	0.038271874
146	0x3d2af88c	0.04174094
147	0xbde23b0b	-0.11046418
148	0x3d749194	0.059709147
149	0xbd1e8364	-0.038699523
150	0xbe033bf6	-0.12815842
151	0xbca9c3c7	-0.020723237
152	0x3ca74276	0.020417433
153	0xbc2ff46c	-0.010739427
154	0x3d1684b9	0.036747668
155	0x3bde3a7c	0.006781874
156	0xbe0fe4cf	-0.14052127
157	0x3d182d0d	0.03715234
158	0x3da34009	0.07971198
159	0x3c803cb9	0.015653955
160	0x3d9b83f9	0.07593531
161	0x3c8ecd41	0.017431857
162	0x3e683042	0.22674659
163	0xbb0107f0	-0.001968857
164	0xba36af20	-0.00069688447
165	0x3ce6c40e	0.028169658
166	0x3c893cc4	0.016752608
167	0x3d73d8a2	0.05953277
168	0xbde1f045	-0.11032156
169	0xbc6fb783	-0.014631155
170	0x3e0e1d71	0.13878419
171	0x3e11242d	0.14173956
172	0x3e46a65a	0.19399396
173	0x3d2ae83c	0.041725382
174	0xbdabd850	-0.08390868
175	0xbc3864df	-0.011254518
176	0xbc98a5ce	-0.01863375
177	0x3e6b3f5c	0.22973388
178	0x3c8d3649	0.0172378
179	0x3d708e69	0.058729563
180	0xbdce4dfe	-0.100734696
181	0xbdab1ebf	-0.08355474
182	0x3d1b4100	0.037903786
183	0x3dd33760	0.10313296
184	0x3c98c496	0.018648427
185	0xbb4bdc0c	-0.00311065
186	0xbd537b4d	-0.05163126
187	0xbd36bc42	-0.04461313
188	0x3d492a94	0.04911287
189	0x3d6bef74	0.057601407
190	0x3d56a232	0.052400775
191	0xbcf785e5	-0.030215213
192	0xbdae2599	-0.08503265
193	0x3e2a72aa	0.16645303
194	0x3e60c496	0.21949992
195	0x3dd97c91	0.10619462
196	0xbd8e0555	-0.06934611
197	0x3e325aa7	0.17417394
198	0x3b53d7d8	0.0032324698
199	0xbd73e2e7	-0.059542563
200	0x3d87be07	0.06628042
201	0x3b2e690c	0.0026612906
202	0x3d133961	0.035943393
203	0x3e145d88	0.14488804
204	0xbdbebea5	-0.09313706
205	0xbdeb28ef	-0.11482417
206	0xbdc39b22	-0.095510736
207	0xbe28fc98	-0.16502607
208	0xbdece7de	-0.11567663
209	0x3e03d063	0.12872462
210	0x3d9caec7	0.07650524
211	0x3da91acc	0.08257064
212	0xbd0b531b	-0.034014802
213	0xbc975a44	-0.01847566
214	0x3c0269ba	0.0079597775
215	0x3dc5db74	0.09660998
216	0x3d3cab19	0.04606161
217	0xbcb057eb	-0.021526298
218	0xbdc39ffa	-0.095519975
219	0x3db6df6b	0.08929332
220	0xbc730cc2	-0.014834585
221	0xbdb30ceb	-0.08742698
222	0xbdd2dee6	-0.10296421
223	0x3d49e8ce	0.049294285
224	0x3c32e714	0.010919351
225	0xbcf94c3b	-0.030431857
226	0x3cfcc018	0.030853316
227	0x3da715fa	0.081584886
228	0xbd975011	-0.07388318
229	0xbdc96a27	-0.098347
230	0x3e16ba59	0.14719523
231	0xbd58f4a9	-0.0529677
232	0xbce9c9c4	-0.028538592
233	0x3d17a720	0.037024617
234	0x3d42fdcb	0.047605317
235	0x3d2fadc7	0.042890336
236	0xbc4956d8	-0.012288772
237	0x3d4e3cd8	0.050350994
238	0xbd9f4278	-0.0777635
239	0xbca29a59	-0.01984899
240	0xbd8fb6a4	-0.07017258
241	0x3d955df7	0.07293313
242	0x3c364203	0.011124137
243	0x3c8d4bb0	0.017248005
244	0xbd6c8b56	-0.05775007
245	0xbd8d05d1	-0.06885875
246	0xbdcee81a	-0.101028636
247	0xbd12bb0c	-0.035822913
248	0xbde52671	-0.11188973
249	0xbdc9151b	-0.09818479
250	0xbd99b5b0	-0.07505357
251	0x3c257a5f	0.010099976
252	0x3d64729b	0.05577336
253	0x3bf1d4c9	0.0073801023
254	0xbd740bfc	-0.05958174
255	0xbd5a3c72	-0.0532803

F6.bias f4 [84]
0	0x3dff9d5f	0.12481188
1	0x3ce8c13d	0.028412456
2	0x3ceabea8	0.028655365
3	0xbb7791c3	-0.003777609
4	0xbc6dd3d7	-0.014515839
5	0x3d393d08	0.04522422
6	0xbc9856a9	-0.01859601
7	0xbadab86f	-0.0016687046
8	0x3da1bffb	0.078979455
9	0x3e10c229	0.14136566
10	0x3c6c4c31	0.014422462
11	0x3df0cf86	0.11758332
12	0xbbc1623e	-0.005901604
13	0xbd2f70bd	-0.042832125
14	0xbd85d5b8	-0.06534904
15	0x3b46a509	0.003031077
16	0xbd855fb9	-0.06512398
17	0x3d1ef163	0.038804423
18	0xbcc8ab51	-0.024495753
19	0x3d675107	0.056473758
20	0x3cea28cd	0.028583908
21	0x3d3b199d	0.045678724
22	0x3daab443	0.083351634
23	0xbd214da2	-0.039380677
24	0x3d5bc3bd	0.053653467
25	0xbd8c659a	-0.068553165
26	0xbe174d1b	-0.14775507
27	0x3d8cf0ab	0.06881841
28	0x3bfbd9e1	0.0076858853
29	0xbd0e9e9b	-0.034819227
30	0x3d492110	0.049103796
31	0xbd343f19	-0.044005487
32	0xbceff1ac	-0.029290043
33	0xbd59a03f	-0.05313134
34	0x3da1f44a	0.079079226
35	0x3dba68ee	0.09102045
36	0x3c78e935	0.01519232
37	0xbcbb921d	-0.02289682
38	0x3d5078a4	0.050896302
39	0xbdd61871	-0.104538806
40	0x3d970708	0.07374388
41	0xbd1abdde	-0.037778728
42	0xbd8e544e	-0.069496736
43	0xbdcf2e4b	-0.101162516
44	0x3d849b04	0.064748794
45	0x3d61644f	0.055027302
46	0xbcbfb69e	-0.023402508
47	0x3c4337fc	0.011915203
48	0xbc58cd79	-0.013232582
49	0xbe0e3cd1	-0.13890387
50	0xbc3da1c7	-0.011574215
51	0x3e14a196	0.14514765
52	0xbd8ea759	-0.06965513
53	0xbd8aaaf4	-0.06770888
54	0xbc244be0	-0.010027856
55	0xbd027c2a	-0.031856693
56	0x3ca22f8f	0.019798068
57	0xbd99f5d8	-0.07517594
58	0xbc5c476e	-0.013444765
59	0x3c9940d0	0.018707663
60	0xbb9a35f6	-0.0047061397
61	0x3d9b3bae	0.07579742
62	0xbd03d49f	-0.032185193
63	0x3dc5c74d	0.09657154
64	0x3d06da4c	0.032923028
65	0xbcb37c5b	-0.021909883
66	0x3cec32a6	0.028832745
67	0x3c7dc6d5	0.0154893
68	0xbcced2ec	-0.02524706
69	0x3d8794cf	0.0662018
70	0x3d025340	0.031817675
71	0xbd7c8d13	-0.061657976
72	0xbd954eeb	-0.07290443
73	0x3d469415	0.048481066
74	0xbd929864	-0.071579725
75	0x3ded9891	0.11601365
76	0x3dcdb063	0.10043409
77	0x3d6af9f7	0.05736729
78	0x3d7aead2	0.0612591
79	0xbd06b5cc	-0.03288822
80	0x3c9b822d	0.018982971
81	0x3dc0c2d9	0.09412164
82	0x3d0f107f	0.03492784
83	0x3d95960f	0.07304012

logits.weight f4 [10, 84]
0	0xbd7d7d2a	-0.061886944
1	0xbdbceb41	-0.092245586
2	0xbddf678e	-0.10908423
3	0xbcb107cd	-0.021610165
4	0x3ceb488b	0.028721115
5	0x3e193893	0.14962988
6	0x3d921152	0.0713221
7	0xbe2679b1	-0.16257359
8	0xbe4c4f63	-0.19952159
9	0xbd4662c8	-0.04843405
10	0x3d7d931c	0.061907873
11	0xbe117d39	-0.14207925
12	0x3d627928	0.055291325
13	0xbc9a7b2a	-0.018857557
14	0x3d1323c2	0.035922773
15	0x3de1542a	0.11002381
16	0x3deece67	0.11660462
17	0xbdf072eb	-0.11740669
18	0xbd8d1d36	-0.06890337
19	0xbd261e1c	-0.04055606
20	0xbd2eb736	-0.042655192
21	0x3d92ba9a	0.07164498
22	0xbd90ab5d	-0.07063935
23	0x3de58f33	0.11208954
24	0xbe276b98	-0.16349638
25	0x3db24c76	0.0870599
26	0x3d8f0436	0.06983225
27	0xbd92af4e	-0.07162343
28	0x3d359d03	0.04433919
29	0x3c6ecaea	0.014574746
30	0xbe0faa47	-0.140298
31	0xbc965d45	-0.018355021
32	0x3de84cfe	0.1134281
33	0x3bf4d74b	0.007471954
34	0xbe807b29	-0.25093964
35	0xbd229f1f	-0.03970253
36	0xbe652292	-0.22376469
37	0xbdad5839	-0.08464093
38	0xbe23cdd5	-0.15996487
39	0xbdb0c374	-0.0863103
40	0xbdf1efdc	-0.11813328
41	0x3e05828d	0.13038082
42	0x3dc0cb4c	0.09413776
43	0xbd65e268	-0.05612412
44	0x3a8000a8	0.000976582
45	0xbe3cd4dc	-0.18440574
46	0xbd86c190	-0.06579888
47	0xbdf767d6	-0.12080352
48	0xbd1bb605	-0.038015384
49	0xbd87c7d4	-0.06629911
50	0xbe23ddad	-0.16002531
51	0x3de832c3	0.11337807
52	0xbdeac0f3	-0.114625834
53	0xbdebfeed	-0.115232326
54	0x3cd0bc18	0.025480315
55	0xbc3e6940	-0.011621773
56	0x3dcd4e21	0.100246675
57	0xbd8d11b5	-0.06888143
58	0xbe36589d	-0.17807241
59	0xbd0f187c	-0.03493546
60	0xbe2444c8	-0.16041863
61	0x3db76e84	0.08956626
62	0xbcdab614	-0.02669815
63	0x3e03ee3c	0.12883848
64	0x3d5fb070	0.054611623
65	0xbd03c948	-0.03217438
66	0x3d09893c	0.033578143
67	0x3b816f3d	0.003950028
68	0xbd83b720	-0.06431413
69	0xbd6f4ab4	-0.05842085
70	0x3df8e923	0.12153842
71	0xbd9d1863	-0.07670667
72	0x3e571adb	0.21006338
73	0xbd8d63e2	-0.06903817
74	0xbe113b8f	-0.14182876
75	0xbda0bd69	-0.07848627
76	0xbe264d0f	-0.16240333
77	0xbe44b9fd	-0.19211574
78	0x3db9b223	0.0906718
79	0x3db7eac0	0.08980322
80	0x3dd9778d	0.106185056
81	0x3d125de8	0.035734087
82	0x3e2ab981	0.16672327
83	0x3d95cfbb	0.07315012
84	0xbe099555	-0.13435872
85	0x3d8ff9f9	0.070301004
86	0xbdd2facc	-0.10301742
87	0x3db31627	0.087444596
88	0xbd02c1a7	-0.031922963
89	0x3ca7ce08	0.020483986
90	0x3cc6d4a2	0.024271313
91	0x3db6040f	0.08887493
92	0x3cb6ab64	0.022298522
93	0xbd43ccb9	-0.04780266
94	0x3d911afb	0.07085224
95	0xbe2e561f	-0.1702504
96	0xbce2cd51	-0.027685793
97	0xbd581173	-0.052751016
98	0x3cbe94a7	0.023264242
99	0xbe04d848	-0.1297313
100	0xbe39be02	-0.18138888
101	0x3e050481	0.1299
102	0xbde2bca2	-0.11071135
103	0x3c18c122	0.00932339
104	0x3d87a08e	0.0662242
105	0xbe0a2365	-0.13490064
106	0xbd00a390	-0.031405985
107	0x3caf4258	0.02139394
108	0xbdc315e7	-0.09525662
109	0xbd81a451	-0.06330169
110	0x3db80014	0.0898439
111	0x3d9599b5	0.07304708
112	0x3de2611d	0.11053679
113	0xbe7d1f03	-0.24718861
114	0xbe227c6f	-0.1586778
115	0xbdc50ba3	-0.0962136
116	0xbe1bfa28	-0.15232146
117	0xbd49cf03	-0.049269687
118	0x3e040c3d	0.12895294
119	0xbe56519b	-0.20929568
120	0xbe479c9d	-0.19493337
121	0xbdfe1e48	-0.124081194
122	0xbdd09191	-0.101840146
123	0x3c3cc2c5	0.011521046
124	0xbd581dd1	-0.05276281
125	0x3dc78236	0.09741633
126	0x3d6877b8	0.056754798
127	0xbdd72694	-0.10505405
128	0xbd381a06	-0.044946693
129	0x3d95f589	0.07322223
130	0x3d212632	0.039343067
131	0x3d9e3e00	0.07726669
132	0xbd3d0e6c	-0.046156332
133	0x3de372b1	0.1110586
134	0xbe8b497d	-0.27204505
135	0xbd083acf	-0.03325921
136	0x3df39ac7	0.11894756
137	0xbe1225c2	-0.14272216
138	0x3d77d9ba	0.060510375
139	0xbbfe0adc	-0.0077527594
140	0x3dc5fa49	0.09666879
141	0xbd08cbd8	-0.033397526
142	0x3dd15e3d	0.10223053
143	0x3d637106	0.05552771
144	0xbe3499ce	-0.17636797
145	0x3d9aa23b	0.07550474
146	0xbdafa69c	-0.085767
147	0xbd99fdc0	-0.07519102
148	0xbdc09df1	-0.09405125
149	0xbe10a788	-0.14126408
150	0x3e0c177f	0.13680838
151	0xba245ad6	-0.0006269639
152	0xbdc1b751	-0.09458793
153	0x3c86e08d	0.016464496
154	0xbe1535dd	-0.14571328
155	0x3dcb53e4	0.0992811
156	0x3e3e9160	0.18610144
157	0xbd2bd146	-0.041947626
158	0x3bccc829	0.006249447
159	0xbdc54b57	-0.096335106
160	0x3d9c4062	0.076294675
161	0xbdc42a0a	-0.09578331
162	0xbd037818	-0.032096952
163	0xbe7ae08e	-0.24499723
164	0x3dcce070	0.100037456
165	0x3e37e580	0.17958641
166	0x3c58745e	0.013211338
167	0xbdf27878	-0.11839384
168	0x3e18f484	0.14937025
169	0x3da9b408	0.08286291
170	0xbd43f45c	-0.04784046
171	0xbe0fde56	-0.14049658
172	0xbdd48457	-0.10376804
173	0x3e008988	0.12552464
174	0x3dffe7f7	0.12495416
175	0x3d9adbb3	0.075614356
176	0x3d5ab025	0.05339064
177	0x3dfb3d11	0.12267507
178	0xbd63f651	-0.055654828
179	0xbe0ff371	-0.1405771
180	0x3daf435b	0.08557769
181	0x3d811eba	0.06304689
182	0xbdefe27a	-0.11713119
183	0xbc00fbff	-0.007872581
184	0xbe340976	-0.17581734
185	0xbce21580	-0.027598143
186	0x3c09585a	0.008382881
187	0xbd53450a	-0.051579513
188	0xbe3b1523	-0.18269782
189	0xbde38238	-0.11108822
190	0xbe0fb63e	-0.14034364
191	0xbd3615aa	-0.044454254
192	0x3d9afc7d	0.075676896
193	0xbc6e800d	-0.014556897
194	0xbc530242	-0.012878956
195	0x3cdf5d82	0.027266268
196	0x3e1e3fc6	0.15454015
197	0xbe07096b	-0.13187186
198	0xbd757544	-0.059926286
199	0xbd0a5d6c	-0.0337805
200	0x3d8794ab	0.06620153
201	0xbdc72d4a	-0.09725435
202	0xbd198785	-0.037482757
203	0xbe34d1e4	-0.17658192
204	0xbe9c2370	-0.30495787
205	0xbe34f628	-0.17672026
206	0x3cf494c3	0.029856091
207	0xbe448e83	-0.19194989
208	0x3da83d52	0.08214821
209	0xbd90a5e6	-0.070628926
210	0x3d3c95c0	0.04604125
211	0x3c0abe02	0.008468153
212	0x3e2dac06	0.16960153
213	0xbdfa83f5	-0.122322
214	0xbd70ba1a	-0.05877123
215	0x3bf1e849	0.007382427
216	0x3d904eba	0.07046266
217	0xbd63e84f	-0.05564147
218	0x3e1b9785	0.15194519
219	0x3daca124	0.08429173
220	0x3e085acc	0.13315886
221	0xbe34bfb2	-0.17651251
222	0x3ce70887	0.028202308
223	0xbe152458	-0.14564645
224	0x3e0e7851	0.13913085
225	0x3da5ead2	0.08101429
226	0xbe03617b	-0.12830155
227	0x3e5b9ff5	0.21447738
228	0x3d550d61	0.052014712
229	0xbdabab8d	-0.0838233
230	0xbbb26cc5	-0.0054450952
231	0x3d887c13	0.0666429
232	0xbd1c1e99	-0.038115118
233	0xbe3dc318	-0.18531454
234	0xbe46ab62	-0.19401315
235	0x3d44d3d3	0.048053574
236	0x3d5d03b7	0.05395862
237	0xbde28769	-0.11060984
238	0x3d8cc7c2	0.06874038
239	0x3df7fb64	0.12108496
240	0xbe319ab4	-0.17344171
241	0x3ddd8c9d	0.108178355
242	0xbdc31242	-0.09524967
243	0x3deacba3	0.11464622
244	0xbcd25ce2	-0.025679056
245	0x3daf3677	0.0855531
246	0xbd7a7977	-0.061150994
247	0x3e0b7d16	0.13621935
248	0xbca98344	-0.020692475
249	0xbcf3e60b	-0.029772779
250	0x3c907001	0.017631533
251	0x3def0099	0.11670036
252	0x3e054306	0.13013849
253	0x3de859e9	0.11345274
254	0xbda69965	-0.081347264
255	0xbe42b381	-0.19013788

logits.bias f4 [10]
0	0xbd25a6fe	-0.04044246
1	0x3da027cd	0.078200914
2	0xbc25dbe6	-0.010123229
3	0x3bed5ce0	0.0072437376
4	0xbdb9ad15	-0.09066216
5	0xbd369d0e	-0.044583373
6	0x3d533047	0.051559713
7	0xbd84ebba	-0.06490274
8	0x3d60136f	0.054706033
9	0x3db5bba6	0.08873682
